hw4/q2_mlp.ckpt (torch, 45755 bytes, 9 tensors)

weight f4 [45, 90]
00000000: b0f1 34be 3ba9 3a3e d6cc aa3c 5aae f23d
00000010: 1e83 913d 1c97 bc3d 6931 ba3d f0f4 c93d
00000020: e0a8 0fbe d3ca 623d 0a22 6d3c f9ed aabc
00000030: b441 d83c 14b2 4b3d 6d5f 7abc cee5 56bd
00000040: 720c 8c3c 2e4c 37bd 1b52 dfbc aec9 ed3c
00000050: 2060 6bbd d8d2 6fbb 0ecf 11bb 83d0 043d
00000060: 86e6 21bc 7421 1abe 53e8 9f3d 7902 a8bd
00000070: b1f8 dbbc 8f3d b5bd 60d0 ab3c 0dff 113d
00000080: c170 0bbd bcd2 fcbd a07c a33c 00ba 4d3d
00000090: 3638 f3bc a554 c5bd b9eb 2bbd 7cc1 ddbd
000000a0: 731e 753d 72e8 74bc 4845 953d 8641 1cbd
000000b0: 87ef 903c a134 61bd e6a2 cfbd 654e 1abb
000000c0: f127 123d b1f5 c13d 1e02 7f3d 09b5 b33c
000000d0: 4b2b 63bc 46d1 aabc 4844 f139 de54 9f3d
000000e0: f7ee e1bc ba35 78bd 0fa7 52bd b4d9 e93d
000000f0: ae68 a8bd b7ee 513d 47f1 9c3d 422e 84bc
00000100: 122a 42bd 2e75 2f3d 405e 40bd 79be f33d
00000110: 4289 57bd 5723 26bd b671 f23d 2277 213b
00000120: 74a7 183d 40cf 81bd eb76 d23d 676b d43d
00000130: 4477 9e3d cee2 c03c 6595 913d 5969 d03c
00000140: bdcd c53d d1a8 5b3d e045 d1bd 07b0 d63c
00000150: 2018 4b3d aaec 68bc 5845 8e3a 87bc 783c
00000160: c552 d2bc 5a0f 1a3d c45a 7c3e 8eb9 bebe
00000170: d793 efbd 673f 5dbe cc40 67be d52e 9abe
00000180: b0f2 533d 69f0 73be 1c36 643c d925 a7bd
00000190: 34bb d6bc 9c2a 8bbc 3c12 903e 191a e13d
000001a0: 8259 81bd af44 a13d 0c8c 9a3d e526 7dbc
000001b0: c59b b73d 9f8d f7bd c042 15bd 0465 36be
000001c0: 1f3c 133d 9c2e 59ba d521 39bd c81d e73a
000001d0: 433f c8bd ba6f fcbd e85f 3a3c a257 db3d
000001e0: fe79 8d3c f4b0 08bd b415 96bd 8325 243e
000001f0: 96c3 a9ba 608f 4ebc 8b72 5bbd 1f64 4ebd
00000200: 3abe b83c b6d9 92bd bf37 4dbe b41d 693d
00000210: 3f99 2abd 5a50 5fbd bf1a 4dbd ee20 e4bd
00000220: 2cca a5bd 1fd3 47bd 65a7 cdbd b3ac dcbd
00000230: 85f9 313c ae48 383d 9cd8 e53d 4112 c9bd
00000240: dd50 be3d 4bd9 2d3d aa74 6cbe 59bf 793d
00000250: f52b c33b 7c00 fe3b 16fb 61bd d723 c1bd
00000260: 4980 2dbe 6252 4bbd 4ab8 3d3d a821 d5bd
00000270: 3d7d 91bd 97bd 15bd 15fe a53d 844e 1a3d
00000280: 1384 643d b60e f8bd 9441 bd3d 4de9 863d
00000290: 875e 4e3d a898 e8bd f056 dbbb b20e cbbd
000002a0: 49bb 86bd 66b8 57bd 1610 58bd c6c8 e4bc
000002b0: f6f3 04bb 0bd5 dbbd 52f0 b1bd 60d8 22bd
000002c0: 4c96 713c e560 4f3d 0128 b6bc df11 bf3c
000002d0: aa6c c33e 0212 8dbe 3a67 80be 6a93 c5bc
000002e0: 7be1 19be 127c 0bbd b505 b73d b05e 7f3d
000002f0: b0c0 b938 86e9 85bc 8d49 04be 416c 20bd
00000300: 7d15 e23d 949d 49bd 08e4 07bd 82b5 d93d
00000310: 3646 a9bd e73d ae3d 3b8e f7bc ced5 a6bc
00000320: 024a 74bd 5ba3 cdbc 794e 0fbd 7872 103e
00000330: d282 fdbc 7e5e 763d e9f2 893c 2882 2bbd
00000340: 1418 bc3a 9a97 10bc 5635 a33d 2e69 87bc
00000350: 1f43 b9bb fd9a 0fbd 4687 70bd 7f4e f83d
00000360: 684d 7739 56c9 493d 29e4 09bd 27b4 44bd
00000370: afa7 afbc 95dc 6cbb 2641 ecbc 9a4f 61bd
00000380: 62c7 273d 6bbf 14be 7460 acbd 5507 c5bd
00000390: 5c01 933d 2dfc 053d 3e57 543d 7ac5 8f3d
000003a0: 5555 80bd 5396 2cbd b2e0 ec3d 824c 583d
000003b0: ae8c ad3c 42dd 1f3c b776 3bbc b588 29bd
000003c0: ef71 40bd b1cd c1ba c750 0cbe a32b 8a3d
000003d0: 41e5 94bd 0f3a 203d 422e eabb 33bb 073d
000003e0: fa69 4dbd c569 d13d 2025 0e3e fa23 ca3d
000003f0: 593f c53d 5399 4a3c cdb6 09bd df6d ae3d
-0.17670321 0.18228619 0.020849627 0.11849661 0.07105087 0.09208509 0.090914555 0.09861171
-0.14029264 0.05536921 0.014473448 -0.020865427 0.026398517 0.049730375 -0.01528154 -0.052465253
0.017095778 -0.044750385 -0.02726083 0.029026832 -0.05746472 -0.0036594179 -0.0022248658 0.032425415
-0.009881621 -0.15051824 0.07807984 -0.082035966 -0.026851984 -0.08849632 0.020973384 0.035643626
-0.034043077 -0.12344882 0.019956887 0.05022621 -0.02968989 -0.09635285 -0.04197285 -0.1082792
0.05984349 -0.014947997 0.07288605 -0.038148426 0.01769234 -0.05498183 -0.10138492 -0.0023545262
0.035682622 0.0947069 0.06225788 0.02193691 -0.013865302 -0.020851742 0.00046017976 0.07779859
-0.027579768 -0.060598113 -0.05142885 0.11418477 -0.08223091 0.051253047 0.076632075 -0.016135339
-0.047403403 0.04283636 -0.046964884 0.11901564 -0.052621134 -0.040561046 0.11838095 0.002463766
0.03726907 -0.06338358 0.10276588 0.10372048 0.07737592 0.023545649 0.07108573 0.025440859
0.09658382 0.053627793 -0.10218406 0.026206983 0.049583554 -0.014216581 0.0010854406 0.015181667
-0.025674233 0.037612297 0.24644 -0.37250942 -0.1169812 -0.21606217 -0.22583312 -0.30113855
0.051745117 -0.23822178 0.013928916 -0.08161516 -0.026212312 -0.016988091 0.28138912 0.10991306
-0.063159004 0.078744285 0.07546243 -0.015451168 0.089652576 -0.12087559 -0.03644061 -0.17811972
0.035946008 -0.00082848384 -0.04519828 0.0017632777 -0.09777691 -0.12325998 0.011375405 0.10710074
0.017270084 -0.03337188 -0.07328358 0.16029935 -0.0012951966 -0.012607425 -0.053576034 -0.05038845
0.022551645 -0.07170431 -0.20040797 0.056913093 -0.041650053 -0.05451999 -0.050074335 -0.11139093
-0.08095202 -0.048785325 -0.100416936 -0.10775127 0.010862713 0.044991188 0.112229556 -0.09817935
0.09292767 0.042443555 -0.23091379 0.0609735 0.005956168 0.0077515226 -0.055171095 -0.09430664
-0.16943468 -0.049639113 0.04631833 -0.1040681 -0.071039654 -0.03655776 0.08105103 0.037672535
0.05579002 -0.12112181 0.09241024 0.06587467 0.050383117 -0.11357242 -0.0066937134 -0.09914912
-0.065786906 -0.05266609 -0.052749716 -0.027927767 -0.0020287014 -0.10733994 -0.086884156 -0.039757133
0.014745306 0.050629515 -0.022235872 0.023323951 0.38168842 -0.275528 -0.25078756 -0.024118144
-0.1502742 -0.03405387 0.089366354 0.06234616 8.857378e-05 -0.016346704 -0.12918682 -0.03916574
0.11039255 -0.049222544 -0.033176452 0.10630323 -0.08265345 0.08507901 -0.030219188 -0.020365622
-0.05964089 -0.025102308 -0.034986947 0.14106166 -0.030946169 0.06014871 0.016839461 -0.041872174
0.0014350438 -0.008825207 0.079691574 -0.016529646 -0.0056537534 -0.035059918 -0.058722757 0.12124347
0.00023584592 0.049264275 -0.033664856 -0.04802337 -0.021442262 -0.003614222 -0.028839659 -0.055007555
0.04096163 -0.14526145 -0.084168345 -0.09620539 0.07177994 0.032711197 0.051841013 0.070200875
-0.06266276 -0.042135548 0.11566295 0.05280734 0.021185245 0.009757342 -0.011441878 -0.04139014
-0.046983656 -0.0014786032 -0.13702689 0.06746604 -0.07270289 0.03911787 -0.0071466276 0.03313751
-0.050149895 0.10225252 0.1388135 0.09870143 0.09631223 0.012365657 -0.033621598 0.0851705

bias f4 [45]
00000000: 5dc0 a03d ec3a 87bd 4f4f e5bc e8e9 ff3c
00000010: 6c33 4cbd a056 70bd 3a0a 413c 08a6 80bc
00000020: 8ce6 5bbe 86c4 653e a284 d2bb 3815 4bbe
00000030: 5091 ceba 70bc 89bb aef6 e03b 59c0 afbc
00000040: bc31 6fbc 7c16 8ebc 8115 1d3c 3f97 803c
00000050: 746f 1a3d eebf d7bd 687e 5e3d c241 5fbc
00000060: 553b 57be d953 903c c830 88bc fb9a 6f3e
00000070: 7853 543e f890 7fbd cbf8 88be 3e28 8b3c
00000080: 21bc c63d d29b d2bd ae8c e3bc b19f 813d
00000090: 06d4 5f3e 1284 1fbd 589c 65bd 2fe6 12bd
000000a0: 30f1 fe3d 7b4c c03e e280 e83d ebe4 f73d
000000b0: 364e 0bbe
0.078491904 -0.06603035 -0.027991919 0.031239465 -0.049853727 -0.058676362 0.011782223 -0.01570417
-0.21474665 0.22438249 -0.0064245025 -0.19832313 -0.0015759859 -0.0042033717 0.006865344 -0.021454023
-0.01459926 -0.017344706 0.009587646 0.01569712 0.037703946 -0.105346546 0.05431977 -0.013626518
-0.21018727 0.017618107 -0.016624823 0.23398964 0.20734966 -0.062394112 -0.26752314 0.016986962
0.097038515 -0.102836266 -0.027777042 0.06329287 0.21858224 -0.03894431 -0.056057304 -0.03586405
0.124483466 0.3755835 0.113527074 0.121042095 -0.13604054

weight f4 [45, 45]
00000000: 4028 1fbe 6757 1b3e 9265 9fbd d1e7 a0bd
00000010: b6bb febd 8661 11be dd95 d7bd a4b8 a8bd
00000020: c607 c63b b2d6 303d 7513 5bbd 7868 d5bd
00000030: c813 b33d 70e5 f23d 98bf b6bc 0d49 09be
00000040: 9a20 0b3d 3f6d 073e 6103 a2bc 4890 e03b
00000050: 750b 8e3d 6d9a f6bd be9e b8bd d029 a4bd
00000060: 703a e23d c014 0dbe 5345 c43d 90c9 f6bd
00000070: bbc2 a53d 11ba 093e e95b 1e3e ace5 ed3d
00000080: 5431 393c fb50 013e 0573 d3bd 187b 023e
00000090: b4c6 363d 3932 d23c 5ec7 e03d 10de 14bd
000000a0: 8d9b d0bd 0134 01be 6d81 8a3d 30d6 acbd
000000b0: a6e1 b93d 7748 153d ad5c 0bbe 78a5 ddbd
000000c0: 7c1e 32bd a5b9 a13d 1825 e3bc b151 343d
000000d0: 745c c4bd b9d6 81bd a6d7 da3d d363 cfbc
000000e0: 4cdc acbc 4833 e43c 78b9 3f3d 9340 803d
000000f0: 7cfa 4dbe 79e5 ffbc 28b2 f83c 44e7 1a3d
00000100: 4645 02be ec8a 0f3e 496e bdbd f9b9 373c
00000110: ba35 1ebc e348 25be 7c37 f63d cd6e 88bc
00000120: ac35 e9bd 940a 6b3d e2d1 a6bd 4c43 ccbc
00000130: e161 abbd 2b3f c83c 653d b1bd aa8d 92bb
00000140: 96f4 18be 78c7 1a3e b1aa f83d 238d 813d
00000150: d0c8 193d 7fd2 243b 91fa 03be e698 8fbd
00000160: 8164 fabd 07e2 22be ce50 fe3d c73e 91bd
00000170: bc2a d93d c771 f0bb 3287 92bd b7e7 433c
00000180: 954b abbd caa8 a33d 6627 80bd 2b23 d5bd
00000190: 7dfd 953d 7660 acbd cc45 643c 67a6 f93d
000001a0: 6e62 df3d 856e 4dbe 2903 cf3d e627 f5bd
000001b0: e632 07be 3bc3 b23d 61d7 f3bd dae6 16be
000001c0: 394e 243d 1a97 c2bc f090 c6bd 34bd 093d
000001d0: 2613 ef3c 39f1 6ebd 6518 833d ef4b 8cbd
000001e0: dc27 a9bd ee45 093b 4432 90bd 9be6 73bc
000001f0: 9870 bf3d 363c ff3c 5865 45bd 5444 213e
00000200: 0938 023e 1e88 52bd 1e65 c03d bb0c eabd
00000210: 9252 b9bd 84b2 f0bd 859f f13d 66a9 883d
00000220: 4000 5638 2eee 273d a51a c5bd eff8 d3bd
00000230: c769 9dbd 40dc 013e a45f bfbc 0651 dbbb
00000240: 31cb db3a ead0 c13d 90ea 4cbe 58fc 823d
00000250: c822 e33d 4bd6 ae3d 8df6 63be a849 42be
00000260: 4d70 28bd 94a8 23be d0f5 243c 906b e23d
00000270: 16f9 07bd 81da 14be 6bf1 643d 6528 3ebe
00000280: 2f31 dc3d 3a04 99bd 0ceb debd 3325 4a3d
00000290: 3cc8 e4bd 1894 13be d6d0 55be 30e7 0e3d
000002a0: 1264 9ebd 88ce 223d 1d99 43be 47a4 243e
000002b0: 6f93 3b3b f07c 2cbd ccdd 8b3d ff8c 3e3c
000002c0: 3fd9 4dbe ce7a a7bd 6889 48be 0070 87bb
000002d0: d385 5f3c ce13 833d cb8d f3bb fa33 c1bd
000002e0: 81ed 183e f386 ac3d 482c c9bb 903d 0abe
000002f0: b15a 4fbd 548b 213e 37ad 703d c55a 1f3d
00000300: 5550 c23d df0f 243e 815e eabd 8e20 bebd
00000310: cd1d 2dbe bdb7 13be 2221 21be 5a50 20be
00000320: b522 4f3d 36fe b43b 3897 343d fe67 e5bd
00000330: 757c 853c 335b 0fbd a378 f0bd f731 24be
00000340: ffe8 033e d40e 9fbd 11c3 2cbe 7ceb 98bc
00000350: 6230 ddbd eef8 dcbc 9932 873d e032 2fbe
00000360: fbda 303e 8dad 0b3e e3a7 9fbd 1966 53bd
00000370: 8f64 e7bd 5b25 8dbc 035f bfbb ed86 0ebe
00000380: cb47 f3bd 7773 313d f399 883d d339 b6bd
00000390: 0211 76bc 14bc 7d3d 4f1b ccbb 0eed 08be
000003a0: 8a5d ecbd 2a2e 913d 972e 14be 045f e13c
000003b0: 92e1 a8bd 1313 7d3d 6509 e3bd c977 12bd
000003c0: 43c7 f9bd 35a4 0bbe 2394 e33d 1422 893d
000003d0: 4357 1f3d f4c0 633d c78c 01be ee56 14be
000003e0: efab cbbd 224e ddbd 9207 1abe 0067 12be
000003f0: 9243 0fbd 27f6 b03c a943 85bd acac 173d
-0.15542698 0.1517006 -0.07783045 -0.078567155 -0.12438147 -0.14197358 -0.10526631 -0.082383424
0.006043407 0.0431735 -0.053485353 -0.104203165 0.08744007 0.11860168 -0.022308156 -0.13406773
0.03396664 0.13225268 -0.019777002 0.006853137 0.06935779 -0.12041173 -0.09014653 -0.080157876
0.11046302 -0.13777447 0.09583535 -0.12050164 0.080937825 0.13449885 0.15464748 0.11616072
0.011303265 0.12628548 -0.103246726 0.12742269 0.04462309 0.025658714 0.10975526 -0.036344588
-0.10185919 -0.12617494 0.06762967 -0.084392905 0.09076242 0.03644606 -0.13609572 -0.10822576
-0.043486103 0.07896737 -0.027727649 0.04402322 -0.095879465 -0.06339783 0.10685663 -0.025316155
-0.02110114 0.027856484 0.046807736 0.062623166 -0.20115083 -0.03123735 0.030358389 0.03781821
-0.12721738 0.14017838 -0.09249551 0.011213773 -0.009656364 -0.16141085 0.120223016 -0.016654396
-0.1138719 0.057383135 -0.08145501 -0.024934433 -0.08368278 0.024444183 -0.08654288 -0.004472454
-0.14937052 0.15115154 0.12141932 0.06325748 0.037545025 0.002514988 -0.12888552 -0.07011585
-0.12226201 -0.15906535 0.12417756 -0.07092052 0.10603854 -0.007337782 -0.07154693 0.011957101
-0.083640255 0.07991178 -0.06257515 -0.104070984 0.0732374 -0.08416836 0.0139326565 0.12189942
0.10907446 -0.20061691 0.101080246 -0.11970501 -0.1320301 0.087286435 -0.11906315 -0.147365
0.04011366 -0.023753691 -0.096956134 0.033627704 0.029183935 -0.058335517 0.06401137 -0.06850421
-0.08259556 0.0020946222 -0.070408374 -0.014886524 0.093476474 0.03115664 -0.048192352 0.15748721
0.12716688 -0.051399343 0.093942866 -0.114282094 -0.09048952 -0.11752799 0.11798004 0.06672935
5.102181e-05 0.04099863 -0.09624223 -0.10350215 -0.07686191 0.12681675 -0.023361035 -0.0066930084
0.001676893 0.09463675 -0.20011353 0.06395787 0.11090618 0.08536967 -0.2226202 -0.1897341
-0.041122723 -0.15982276 0.010068372 0.11055672 -0.03319653 -0.14536478 0.055894297 -0.18570097
0.107515685 -0.07471509 -0.108846754 0.049351882 -0.11171004 -0.14411962 -0.20880446 0.034888446
-0.07733931 0.039747745 -0.19101377 0.16078292 0.0028621813 -0.042111337 0.06829414 0.011630296
-0.20102404 -0.0817772 -0.19583666 -0.0041332245 0.013642746 0.06400262 -0.0074326745 -0.09433742
0.1493435 0.08424177 -0.006139312 -0.13500047 -0.0506236 0.15775806 0.05875894 0.038904924
0.09487978 0.1602168 -0.114438064 -0.09283553 -0.169059 -0.1442556 -0.15735295 -0.15655652
0.05057021 0.0055234684 0.044089526 -0.112014756 0.016294697 -0.034999084 -0.1174176 -0.16034685
0.1288185 -0.077665 -0.16871287 -0.018666975 -0.10800244 -0.026974168 0.066014476 -0.17109251
0.17271034 0.13640423 -0.07795694 -0.05161104 -0.11298477 -0.017229727 -0.0058401837 -0.13918658
-0.11878928 0.043323006 0.066699885 -0.08897748 -0.015018703 0.061946943 -0.0062288414 -0.13371679
-0.11541279 0.07088883 -0.14470898 0.027511127 -0.08246149 0.06178577 -0.11085776 -0.035758767
-0.12196209 -0.13636859 0.11112239 0.06695953 0.03890158 0.055603936 -0.12651359 -0.14486286
-0.09944903 -0.10805918 -0.1504195 -0.14297104 -0.03497655 0.02160175 -0.06507046 0.037029907

bias f4 [45]
00000000: 0b4f 68bd 763d 073e 99dd 523e 896d 9b3e
00000010: d623 f53d d1b9 b9bd 636a 0e3e b90a 80be
00000020: 6acc e93c 0ec3 18be 7458 06be e00b 893d
00000030: 9e5e 523e 90b7 34bd 2f1c cebd 117c 853e
00000040: 59ae 893e e0f2 abbd 19c0 823e e43d 57bd
00000050: b432 7bbd 71d5 df3d b432 07bc 48af 9f3c
00000060: 0e06 de3e 4ff7 abbd 51c1 4f3e 8398 203e
00000070: 9d8a efbd cae9 b0bd 5817 80be 872b 1dbd
00000080: 32b6 073e 079f bc3e dc1a aa3d 7abc 0e3e
00000090: 9622 fc3e 948e a8bd 179c a1bd 3fd9 563e
000000a0: 3c9b 043e 2c21 e53d 9fd0 cf3d 66a6 123e
000000b0: d489 d03c
-0.056716006 0.13207039 0.20592345 0.30357006 0.11969726 -0.09068645 0.13907771 -0.2500818
0.028539855 -0.14918157 -0.1311968 0.06691718 0.20543906 -0.04412037 -0.10063969 0.26071218
0.2689083 -0.08395934 0.25537184 -0.052549258 -0.06132765 0.109293826 -0.008251835 0.01949276
0.43363994 -0.0839678 0.20288588 0.15683179 -0.1169636 -0.08638342 -0.2501781 -0.03837159
0.13253096 0.36840078 0.08305904 0.13939086 0.49245137 -0.082303196 -0.078911 0.2098131
0.12949842 0.11187968 0.10147213 0.14321288 0.025456347

weight f4 [45, 45]
00000000: cb52 173e 08fa 9bbd ba9b b9bd 2799 30bc
00000010: ba49 fdbc 1758 e1bd 7f8b 0bbe 1f17 043c
00000020: cb6c 133e 2017 f83d 1145 17be 3005 d6bd
00000030: fb8c 383e cc23 413d 4e8b 573d 7952 b4bc
00000040: 36d5 673e f8b4 3abd 24c1 28be c5af a6bd
00000050: eed6 35bd a226 bdbd 6c9a 1ebe 041d 5d3d
00000060: 306e a1bd 3cf1 15bc 3418 da3c ea2e 543d
00000070: 1dce 9dbd 83fc 783d ce41 ac3d b8b6 4b3d
00000080: a306 823e 698b 40be 68d0 333c 77e7 513e
00000090: f8b5 2bbe b293 e23d cc15 2f3d e538 9d3e
000000a0: 9a01 f53d 51b5 ab3d 2593 023d ea9b 893e
000000b0: 111e 8e3d d003 fcbd 5643 e4bd 7f2d 7cbd
000000c0: 39c8 13be b6e1 8bbd 60e2 563c f45d 13bd
000000d0: a5fc f7bd 9ea4 083e 8d9d e73d 2d25 e73d
000000e0: d324 c03c d91f 363c 306a 143e 79b2 9f3d
000000f0: 91b0 0bbc 5acf b13d 2d09 a4bd ba48 fcbc
00000100: 05a3 b43d 1ab8 d7bd b397 e83d 1e7c 81bd
00000110: bb99 f93d e4ae ec3c c9c4 293d ac43 0a3e
00000120: 4788 cfbd 4034 f5bd c82f 70bd 606e 0abc
00000130: f6e6 a3bd 622c 1cbc d039 d3bb fdf1 d73d
00000140: 2d6c dd3d d9de e13c 4dbf 90bd 59e5 e6bd
00000150: add2 f6bd ad44 c1bd c4e4 263d b851 97bd
00000160: 4c28 acbc 2b8e 43bb 0b74 123e c9a0 0bbc
00000170: 2254 a53d 137a 7c3b 2ab8 013d b330 8b3b
00000180: a8d4 c3bd 28b0 0dbd c0e8 143b 12fa ca3d
00000190: cd3f 153e ef4a 0d3e 4635 18be c236 b6bd
000001a0: 5364 8f3d 2721 cb3c 336e c43d a784 7d3c
000001b0: 66e9 013e a383 eebc 3e06 0c3e 7741 9f3d
000001c0: dfe4 9a3d 0035 13be bc8a 6c3d 5a13 41bc
000001d0: 3248 b83d 7ee7 5e3d fa51 29bc 73de bebd
000001e0: fb4b ec3c 5ed8 a03d 1746 60bb 01db a1bd
000001f0: 021e 693d b022 873d 0dbc ea3d 1abc 93bd
00000200: 551c 74bd 31ec 1d3d 580d cf3c 8e5f a13d
00000210: 2da4 153e d967 d43d c14c 2e3d 8c9c a9bd
00000220: 608b 3a3e 6fb3 1a3e 5ef8 423e dc3e 183e
00000230: 8b46 c53d 4132 91bc 0020 18be f966 083d
00000240: ba70 c9bd 5097 f83d ca24 fa3d 88df 153e
00000250: 0bcd 6c3d 61c8 dabd 78b1 86bc 2bd5 373e
00000260: 99a6 04be cbfe c43c 6483 1cbd 6083 483d
00000270: 697c 613d baaa cd3d 4b21 15be bf19 2fbd
00000280: 3c0d 933d f74b d53c affa 45bd e66d b4bd
00000290: 547e 0cbe 8bb6 0bbe 33a0 03be 0a43 c9bb
000002a0: e712 79bd 2e5d ab3d 5dfe 20be 5980 90bd
000002b0: f78b fcbd 6b79 78bd e0bf de3d 48c9 9f3d
000002c0: 7b4b 1b3e d1e2 053e 927b 003d 6157 0ebc
000002d0: c3c7 e03d 4df4 163e 21bb 043e 337d c93d
000002e0: f74b 0e3e 61c5 8abc 8dbd 723c 3ef1 cebd
000002f0: cc72 9aba 83cf 9dbd 1750 fa3d 10e5 cc3b
00000300: e0f2 6e3d ad84 0fbe 8986 c93d e377 233d
00000310: 45ad 9d3d 108f 06be ed0e 5abd a72e c7bd
00000320: 6141 05bd fadf 21bc ad63 edbc 5f90 1abe
00000330: 4df7 2e3d 5510 a63d fd0c 023c 3074 aa3b
00000340: fd04 0d3c f374 e4bd 8a6f 69bc 253f 67bd
00000350: 84da 1ebe 51d1 203d 1346 503d 718f e2bc
00000360: f4f4 57bc a219 d63d 58c7 523c 1a29 90bd
00000370: bdfd c2bc 300c 13bd 4329 aa3d c28f 1dbe
00000380: 9c35 dabd fcc8 823b 9d8d 053d c840 353d
00000390: 0731 c8bd 2a01 fa3d f253 21bd 3d89 0cbe
000003a0: f851 22bd 0f9f 0bbe dc76 783c 0405 823d
000003b0: 0495 633c b196 693d f051 87bd 4219 063e
000003c0: ac03 c33d 9d02 c1bd 513b 0fbe 1d1e 64bd
000003d0: db2e 88bd 30b9 15be 683f 463d ad08 863d
000003e0: 6787 6e3c feac d0bb 4514 073e 148b 3e3d
000003f0: 911c c63d 345d bd3c 06a7 85bd 45fd 0c3e
0.14777677 -0.07616049 -0.090629056 -0.010778702 -0.030918945 -0.1100313 -0.13627432 0.008062153
0.1439697 0.12113786 -0.1477244 -0.10450208 0.1802253 0.04715328 0.052623086 -0.022011982
0.22639927 -0.04558274 -0.16479927 -0.08138994 -0.044394426 -0.09235884 -0.15488595 0.05398275
-0.07882345 -0.009151753 0.02662287 0.051802553 -0.077053286 0.06078769 0.08410989 0.0497348
0.25395688 -0.18803181 0.010974981 0.20498453 -0.16768634 0.11063327 0.042745396 0.3070747
0.11963196 0.08384193 0.03187861 0.26876765 0.069393285 -0.12305415 -0.11145656 -0.061566826
-0.14431848 -0.0683016 0.013115495 -0.035978273 -0.12108735 0.13344046 0.11309347 0.112863876
0.02345506 0.0111159915 0.14493632 0.07797713 -0.008525983 0.08682127 -0.08009563 -0.030796397
0.08820156 -0.105331615 0.11357059 -0.063225016 0.12187525 0.028891988 0.041447435 0.13502377
-0.10133415 -0.119728565 -0.058639318 -0.008449167 -0.08003037 -0.009532066 -0.006446101 0.105442025
0.108116485 0.027572082 -0.07067738 -0.11274213 -0.12051902 -0.09436927 0.04074551 -0.073886335
-0.021015309 -0.0029839377 0.1430208 -0.008522221 0.08072688 0.003852491 0.031669773 0.0042477488
-0.09562045 -0.034591824 0.0022721738 0.099109784 0.1457512 0.13798116 -0.14864072 -0.08897163
0.07001557 0.024796082 0.09591331 0.015473521 0.1268669 -0.029115504 0.13674256 0.07776158
0.07563185 -0.14375687 0.057749495 -0.011784399 0.08998145 0.054419987 -0.010334486 -0.093197726
0.028844824 0.07853769 -0.0034221464 -0.079031 0.056913383 0.06598413 0.11461649 -0.07213612
-0.059597332 0.038555328 0.025274917 0.07879554 0.1461341 0.1037137 0.042553667 -0.08281812
0.1821723 0.15107511 0.19040057 0.14867729 0.09632596 -0.017724158 -0.14855957 0.033301327
-0.09835954 0.121382356 0.12214048 0.14636052 0.05781273 -0.106827505 -0.016442046 0.17952411
-0.12954177 0.024047276 -0.03821124 0.048953414 0.055050287 0.10042329 -0.14563482 -0.042749163
0.07180259 0.0260372 -0.048334774 -0.08810024 -0.13720065 -0.13643853 -0.1285408 -0.006142025
-0.060809042 0.08367382 -0.15722032 -0.070557304 -0.12331384 -0.06066267 0.10876441 0.07802063
0.15165512 0.13074805 0.031367846 -0.008687825 0.109756015 0.14741631 0.12962009 0.09838333
0.13896166 -0.01693982 0.0148157 -0.10104607 -0.001178348 -0.07705595 0.12222307 0.0062528923
0.058337092 -0.14015456 0.09840114 0.039909255 0.07699064 -0.13140512 -0.05323689 -0.09725695
-0.032533053 -0.00988006 -0.028978193 -0.15094136 0.042716313 0.08108584 0.007937667 0.005201839
0.008607146 -0.11155119 -0.014247784 -0.056456704 -0.15513045 0.03926212 0.050848078 -0.027656289
-0.01318096 0.10454108 0.01286491 -0.070390895 -0.023802632 -0.035900295 0.08308651 -0.1538687
-0.106547564 0.0039912444 0.032605756 0.044251233 -0.09774976 0.12207253 -0.039386697 -0.13724227
-0.039628953 -0.13634895 0.015165057 0.06348613 0.013890509 0.057028476 -0.06607425 0.13095573
0.09522185 -0.094243266 -0.13987471 -0.05569278 -0.06649562 -0.14621425 0.048400313 0.065446235
0.01455865 -0.0063682785 0.13191326 0.046519354 0.09673417 0.023115732 -0.06525998 0.1376849

bias f4 [45]
00000000: fc06 873e 02f6 81bc 49a3 a73d ad5c 1d3e
00000010: 8d29 fc3d 9b0a b1bd b871 55bc 6ec7 c43e
00000020: 4acb c43c 0a39 b83d f0b9 053d 1750 24be
00000030: 53bc c73e 76ff 08be 25f9 183e 098a 9b3d
00000040: 05bd 8c3d 9179 bc3d 2fa8 2fbd e358 573e
00000050: f2f6 24be b6bc 16be f353 c53e 0f60 353f
00000060: 9619 843e 19c9 8a3d d254 30be 4142 c03d
00000070: aea9 063e c8f2 32be e787 1bbe 097b f73d
00000080: 0f39 9cbd c9a7 cb3e e71b cdbd d2e5 313e
00000090: a4a7 6f3e baea d6bc 2ebc 3fbd cf49 023e
000000a0: d939 a2bd 417f f53e 5e66 1e3d 16c2 b8bd
000000b0: 09cc 8b3d
0.26372516 -0.015864376 0.08185441 0.15367384 0.12312613 -0.08644601 -0.013027601 0.38433403
0.024022717 0.08995254 0.032648027 -0.16046177 0.39010867 -0.133787 0.14938791 0.075946875
0.0687199 0.092028745 -0.042885 0.21030001 -0.16109827 -0.14720425 0.3854061 0.708497
0.2580077 0.067766376 -0.17219856 0.09387637 0.13150665 -0.17475426 -0.15188561 0.12084014
-0.076280706 0.39776447 -0.100150876 0.17372826 0.23403794 -0.026234973 -0.04681032 0.12723468
-0.0792119 0.4794865 0.038671844 -0.09021394 0.06826026

weight f4 [45, 45]
00000000: a905 17be 8321 083e 2c34 4bbd 6d3f 1e3e
00000010: 9999 773c 112e e6bd 9905 c13c 71c0 ab3e
00000020: 0823 c6bd 9b1b 1f3e e5b2 533d 5c14 8f3d
00000030: ee67 fa3d b822 c63d d040 913c 88fd 33bd
00000040: a60e 52bd e650 33bd 068c 1dbe 43ba 38be
00000050: 90e6 b1bd 6d26 1a3d c6a2 5f3e de21 c73e
00000060: 0a41 a43d 489a b03d 64c8 16be 176d ba3d
00000070: fc05 643d 0147 b1bd 598b e03d 5c91 603d
00000080: b2b8 13be 0121 4e3d 41f5 e13d 20fd 2e3e
00000090: bf6d 303e 5476 c1bd 97f1 74bc 96d0 1e3e
000000a0: 22a7 0cbd f33a 943e d3db 09be 239d aebd
000000b0: caec acbc 5703 90bd e83b 583d d0d7 febc
000000c0: f8a6 b9bc 2803 e3bd aacc 4bbd d030 bbbd
000000d0: d8f2 06bd d633 13be 5964 dcbd 0ca2 3d3d
000000e0: 4029 0c3b fc96 363d 48df b13c 1792 f9bd
000000f0: b1d3 9dbd f7f9 073e 7e6c abbd a803 a83d
00000100: 9c7b f9bd 8092 67bc a017 63bc 9ffd 0dbe
00000110: ce76 803d d567 80bd 83ce 09be 00c8 5eb9
00000120: 5877 433d 4c37 b23d 8ce5 dcbd 9088 c73d
00000130: 400a f93c 18dc bdbc b470 533d 7096 7bbd
00000140: f2a5 a3bd ed53 12be 4bba 023e eaf0 fbbd
00000150: a245 03be 0468 d1bd 5c88 003d 1848 333d
00000160: 678a 16be c0d3 e63c 9608 1d3d 114f b23c
00000170: 61a5 3e3e 7169 d7bd 0a6c f6bc d8ae c73d
00000180: ae20 f13c d229 eebc 89fd 343d 6e05 d13d
00000190: 5646 fcbd da58 86bc 79b8 353d d3b3 0f3e
000001a0: b40e 3fbd eabd 133e 0891 1b3e 2478 1dbd
000001b0: 2342 17be f091 203e 8c53 19be 6363 a63c
000001c0: efb2 943c d083 4ebc 2797 22bd 0ec0 c8bc
000001d0: 73cd 123e 2c8f bc3d 9608 a3bd 778d 00be
000001e0: 10fc 9fbd 85b4 0b3e 7a98 9d3d 96d2 1fbe
000001f0: 6755 f73c 38d1 f53d a5f1 1dbe 6a62 0f3e
00000200: 88f4 29bd a9d6 2c3e 3967 d3bd 7d1f 5fbd
00000210: 0e71 373d d0d9 f4bc 7a83 12bd 46eb 873c
00000220: 3d44 61bd bc40 17be 4189 80bd 4740 d9bd
00000230: 6993 9fbd 2c13 2dbd 3982 21bd 312b 1bbd
00000240: 143b 0f3e 6fff 9a3c a589 8d3d 1f99 0c3e
00000250: bfb3 833d 5779 a9bd e071 1b3d db1c fabd
00000260: 1afc 2ebd 89e4 0d3e 272e f8bd 51fa 11be
00000270: b6a1 f7ba 9d93 5abd fd0f 383d d7df dfbd
00000280: e39d 09be 844c 153e 3c1b 013e ee1e fbbb
00000290: f063 c3bc 3f7d da3d 9020 54bc 4ef5 c53c
000002a0: 0261 4ebc 11a8 80bd 429c cbbd e0c4 04be
000002b0: 7e95 3bbd 80a0 9a3d fc9c 14be 33ae c63d
000002c0: 9bb5 6d3d 2e6b c23d 0f41 8cbd 994c eebd
000002d0: c5af e63d 083b 8dbd 483c eebd 4250 60bd
000002e0: 6f92 ba3d 9ef7 e33d 624f 273d 5b82 11bd
000002f0: 351b 023e 3442 003e aa06 cdbd f749 a8bd
00000300: b7db cd3b 8a0d 97bc dedf cbbd 475e 16bd
00000310: a64b f5bc 5eeb c43d 40af 72bd 3253 b5bd
00000320: 68a0 a2bd 4ae1 623c 0b17 013e 82f1 e23d
00000330: dc35 2fbd 9296 51bd a0a5 40bd e69e 873d
00000340: 4ae1 1dbd 45f1 0cbc 0312 d53c 9cd8 373d
00000350: c11e 0f3e 45f9 e93d 9cd7 fc3d e8eb 7f3d
00000360: 6b16 0ebe 1c13 87bd 4777 d53c c94e c4bd
00000370: 75da 093e 2d8f 16be f670 06bd e4d2 6b3d
00000380: 1be8 b9bd 9d99 26be f782 d7bd e83b a33d
00000390: 029a d83d 700b 583e 59b0 f8bd 9660 82bd
000003a0: 86e7 343e 5e8f 3abd 0656 1e3e 345b bb3d
000003b0: df3b 3d3d 4872 513e cd0a 15bd b640 e53c
000003c0: af7e b0bb 19d1 0abe 8cf0 aebd 811b 96bd
000003d0: e994 f0bd 6b04 1abe 37a6 cc3d 5e94 b53d
000003e0: 7210 9a3e 9e25 cb3d be07 923c 3b31 b7bd
000003f0: 237d d0bb e251 cabd d121 b63d d72c 9f3d
-0.14748253 0.13294034 -0.0496103 0.15453883 0.015112304 -0.11239255 0.02356224 0.3354526
-0.096746504 0.15537874 0.05168428 0.06986305 0.12226854 0.09674591 0.0177311 -0.043942958
-0.0512835 -0.043778323 -0.15385446 -0.18039803 -0.086865544 0.037634302 0.21839437 0.38893026
0.08020218 0.08623177 -0.1472488 0.091028385 0.05566977 -0.08656121 0.109640785 0.054826126
-0.14425924 0.050324444 0.110331066 0.17088747 0.17229365 -0.094463974 -0.014950178 0.15509257
-0.034339078 0.28951225 -0.13462763 -0.08526065 -0.021109004 -0.07031887 0.052791506 -0.031108767
-0.022662625 -0.110845864 -0.04975573 -0.091401696 -0.032946438 -0.14375243 -0.10761327 0.046297118
0.0021386892 0.044577584 0.021712914 -0.121860676 -0.077063926 0.13278948 -0.083703026 0.082038224
-0.1218178 -0.014134049 -0.013860613 -0.1386628 0.0627266 -0.062698044 -0.13457684 -0.00021246076
0.047721237 0.08701953 -0.1078597 0.09742844 0.030400395 -0.023176238 0.051621154 -0.061422765
-0.07990636 -0.14289828 0.12766378 -0.1230181 -0.12819532 -0.102249175 0.031380042 0.043769926
-0.14701234 0.028177142 0.038338266 0.021766217 0.18617775 -0.10518158 -0.030080814 0.09750146
0.029434528 -0.029072676 0.044187102 0.10206114 -0.12318103 -0.01639979 0.04436538 0.14033441
-0.04664488 0.14427915 0.15192044 -0.038444653 -0.14771323 0.1568067 -0.14973277 0.020311063
0.018151728 -0.012604669 -0.03969493 -0.024505641 0.14336185 0.09206995 -0.07960622 -0.12553965
-0.07811749 0.13643081 0.07695098 -0.15607676 0.03019209 0.12002796 -0.15424211 0.14002386
-0.04149297 0.16878761 -0.103224225 -0.05447339 0.04478555 -0.029889017 -0.035769917 0.01659168
-0.054996718 -0.14770788 -0.06276179 -0.10607963 -0.07791788 -0.04225461 -0.03943083 -0.037882987
0.1398738 0.018920628 0.06911019 0.13730286 0.06430768 -0.08275097 0.037950397 -0.12212535
-0.04272089 0.1385671 -0.12118178 -0.14255644 -0.0018892798 -0.05336343 0.044937123 -0.10931366
-0.13439135 0.1457997 0.12608045 -0.007663599 -0.023851365 0.1066842 -0.012947217 0.024164822
-0.012596371 -0.06282056 -0.09941913 -0.12965727 -0.045796864 0.07550144 -0.1451301 0.097011946
0.05803452 0.09493099 -0.068483464 -0.116357036 0.11263994 -0.06896025 -0.116325915 -0.05476404
0.09109961 0.111312136 0.04084719 -0.035524707 0.12705691 0.12525254 -0.10011037 -0.08217233
0.0062822956 -0.018439073 -0.09954809 -0.036711004 -0.029943299 0.09615205 -0.059249163 -0.08853759
-0.07940751 0.013847658 0.12606446 0.1108122 -0.042775974 -0.051168986 -0.047032952 0.06622104
-0.03854493 -0.008602445 0.026009565 0.04488431 0.13976575 0.114244975 0.12345812 0.062480837
-0.1387574 -0.06595442 0.026057852 -0.095853396 0.13462241 -0.14703055 -0.03282257 0.057574168
-0.09077474 -0.16269536 -0.105230264 0.079704106 0.1057625 0.21098113 -0.12143011 -0.063660786
0.17666444 -0.04554688 0.15462503 0.09148255 0.046199676 0.20453751 -0.036387254 0.027984958
-0.0053861956 -0.13556327 -0.085419744 -0.07329465 -0.11747152 -0.15040748 0.099926405 0.088661894
0.30090672 0.09919284 0.017825957 -0.08944937 -0.0063625737 -0.09878899 0.08893169 0.077722244

bias f4 [45]
00000000: fbb0 bb3e cd35 8cbd 0fc2 c43d bbe1 283c
00000010: b3a7 aabd 2dd0 ce3e d45e 8dbd cb47 abbd
00000020: 586f 433d e19a e63d 5807 0b39 4dab 3e3e
00000030: dfb6 a9bd 9229 1cbe 2d1e 20be 3b11 99bd
00000040: 6a2c b73e 6c90 c7bd 0642 683e 490a ad3e
00000050: 4e39 bcbd 026e 863d 3bda 43bd 3719 97bd
00000060: bf34 973e faed e23d 099c 913e c11f 9b3d
00000070: 6707 b5bd b044 913d a726 ae3d 2354 4a3e
00000080: 1fc7 e5bd 3773 8cbd 02a3 6cbd c2e3 293e
00000090: 5587 073e e64d af3e ee0b 153e c081 dbbd
000000a0: 33ba 753e aff3 d3bd 8cb5 ae3e f51c 85bd
000000b0: 8f3e 2a3e
0.36658463 -0.06846199 0.09607326 0.010307725 -0.08332767 0.403932 -0.06902853 -0.08363303
0.047713608 0.112600096 0.00013258809 0.18620034 -0.08286833 -0.15250233 -0.15636511 -0.074739896
0.35776073 -0.09744343 0.22681436 0.3379691 -0.091906175 0.06563951 -0.047815543 -0.07377856
0.2953243 0.11080547 0.28439358 0.07574416 -0.088393025 0.07093179 0.08503466 0.19758658
-0.1121962 -0.06857913 -0.057772644 0.16590789 0.13235219 0.3423912 0.14555332 -0.10718107
0.2399681 -0.10349213 0.34122884 -0.06499664 0.16625427

weight f4 [1, 45]
00000000: aba5 40bf a0e8 4bbc 004c 833e 9a54 13bd
00000010: 0c18 da3c dc2c 2bbf 1088 b4bd 8caa 09bd
00000020: 4630 67be 7cd7 f13d ad72 073e b519 cc3e
00000030: 1010 8ebc ec79 80bd 18f4 24be d057 40bd
00000040: 7692 36bf 8ed8 13bd b7fc 1fbf 8093 18bf
00000050: 2868 f33c 871a 603e d15a eb3d 5e5d ebbd
00000060: ea5b 38bf 8fd1 433e adc8 27bf e6b3 1a3d
00000070: 6df0 583d af21 32bd 2980 833e e165 ce3e
00000080: cd5e 2d3d 1167 8c3d 0a69 2c3d 3e4e a43e
00000090: 9351 a0bd 8da4 063f 3b52 a33e a432 dcbc
000000a0: 61c7 9bbe fb24 6bbd b1c8 0a3f 9949 923d
000000b0: b9c2 3f3e
-0.7525279 -0.012445599 0.2564392 -0.035969354 0.026622795 -0.66865325 -0.08815014 -0.03360991
-0.22577009 0.118086785 0.13227339 0.39863363 -0.017341644 -0.06273255 -0.1610874 -0.046958745
-0.7131723 -0.036095195 -0.6249499 -0.5960007 0.029712752 0.2188512 0.11491931 -0.11492418
-0.7201525 0.19122909 -0.6554058 0.03776922 0.052963663 -0.043489154 0.25683716 0.40312102
0.042326737 0.06855596 0.04209236 0.32090944 -0.07828059 0.52594835 0.31898674 -0.026879616
-0.30425552 -0.057408314 0.5421248 0.07142944 0.18726625
